…
ntum=0.8, warmup_bias_lr=0.1, box=7.5, cls=0.5, dfl=1.5, pose=12.0, kobj=1.0, nbs=64, hsv_h=0.015, hsv_s=0.7, hsv_v=0.4, degrees=0.0, translate=0.1, scale=0.5, shear=0.0, perspective=0.0, flipud=0.0, fliplr=0.5, bgr=0.0, mosaic=1.0, mixup=0.0, copy_paste=0.0, copy_paste_mode=flip, auto_augment=randaugment, erasing=0.4, crop_fraction=1.0, cfg=None, tracker=botsort.yaml, save_dir=runs/detect/train11\r\nactivation: nn.ReLU()\r\n\r\n                   from  n    params  module                                       arguments                     \r\n  0                  -1  1       464  ultralytics.nn.modules.conv.Conv             [3, 16, 3, 2]                 \r\n  1                  -1  1      4672  ultralytics.nn.modules.conv.Conv             [16, 32, 3, 2]                \r\n  2                  -1  2     18560  ultralytics.nn.modules.conv.Conv             [32, 32, 3, 1]                \r\n  3                  -1  1     18560  ultralytics.nn.modules.conv.Conv             [32, 64, 3, 2]                \r\n  4                  -1  4    147968  ultralytics.nn.modules.conv.Conv             [64, 64, 3, 1]                \r\n  5                  -1  1     73984  ultralytics.nn.modules.conv.Conv             [64, 128, 3, 2]               \r\n  6                  -1  6    886272  ultralytics.nn.modules.conv.Conv             [128, 128, 3, 1]              \r\n  7                  -1  1    295424  ultralytics.nn.modules.conv.Conv             [128, 256, 3, 2]              \r\n  8                  -1  2   1180672  ultralytics.nn.modules.conv.Conv             [256, 256, 3, 1]              \r\n  9                  -1  1    164608  ultralytics.nn.modules.block.SPPF            [256, 256, 5]                 \r\n 10                  -1  1     16512  ultralytics.nn.modules.conv.Conv             [256, 64, 1, 1]               \r\n 11                  -1  1     16448  torch.nn.modules.conv.ConvTranspose2d        [64, 64, 2, 2, 0]             \r\n 12             [-1, 6]  1         0  ultralytics.nn.modules.conv.Concat           [1]                           \r\n 13                  -1  1    110720  ultralytics.nn.modules.conv.Conv             [192, 64, 3, 1]               \r\n 14                  -1  3    110976  ultralytics.nn.modules.conv.Conv             [64, 64, 3, 1]                \r\n 15                  -1  1      2112  ultralytics.nn.modules.conv.Conv             [64, 32, 1, 1]                \r\n 16                  -1  1      4128  torch.nn.modules.conv.ConvTranspose2d        [32, 32, 2, 2, 0]             \r\n 17             [-1, 4]  1         0  ultralytics.nn.modules.conv.Concat           [1]                           \r\n 18                  -1  1     27712  ultralytics.nn.modules.conv.Conv             [96, 32, 3, 1]                \r\n 19                  -1  3     27840  ultralytics.nn.modules.conv.Conv             [32, 32, 3, 1]                \r\n 20                  -1  1      9280  ultralytics.nn.modules.conv.Conv             [32, 32, 3, 2]                \r\n 21            [-1, 15]  1         0  ultralytics.nn.modules.conv.Concat           [1]                           \r\n 22                  -1  1     36992  ultralytics.nn.modules.conv.Conv             [64, 64, 3, 1]                \r\n 23                  -1  3    110976  ultralytics.nn.modules.conv.Conv             [64, 64, 3, 1]                \r\n 24                  -1  1     36992  ultralytics.nn.modules.conv.Conv             [64, 64, 3, 2]                \r\n 25            [-1, 10]  1         0  ultralytics.nn.modules.conv.Concat           [1]                           \r\n 26                  -1  1    147712  ultralytics.nn.modules.conv.Conv             [128, 128, 3, 1]              \r\n 27                  -1  3    443136  ultralytics.nn.modules.conv.Conv             [128, 128, 3, 1]              \r\n 28        [19, 23, 27]  1    607360  ultralytics.nn.modules.head.Detect           [80, [32, 64, 128]]           \r\nYOLOv6n summary: 195 layers, 4,500,080 parameters, 4,500,064 gradients, 13.1 GFLOPs\r\n\r\nTensorBoard: Start with 'tensorboard --logdir runs/detect/train11', view at http://localhost:6006/\r\nFreezing layer 'model.28.dfl.conv.weight'\r\ntrain: Scanning datasets/coco8/labels/train.cache... 4 images, 0 backgrounds, 0 corrupt: 100%|\u2588\u2588\u2588\u2588\u2588\u258
…
larger parameter count or the smaller count?\r\n\r\nBelow I have added my code to run `_predict_once()` immediately following the model parsing and the outputs showing the difference in parameter count\r\n\r\n```\r\n# Parse model\r\nself.model, self.save = parse_model(deepcopy(self.yaml), ch=ch, verbose=verbose)  # model, savelist\r\nself._predict_once(x=torch.empty(1, 3, 640, 640), profile=True)\r\n```\r\n\r\n\r\n\r\n```\r\n                   from  n    params  module                                       arguments                     \r\n  0                  -1  1       464  znt.ultralytics.nn.modules.conv.Conv         [3, 16, 3, 2]                 \r\n  1                  -1  1      4672  znt.ultralytics.nn.modules.conv.Conv         [16, 32, 3, 2]                \r\n  2                  -1  1      7360  znt.ultralytics.nn.modules.block.C2f         [32, 32, 1, True]             \r\n  3                  -1  1     18560  znt.ultralytics.nn.modules.conv.Conv         [32, 64, 3, 2]                \r\n  4                  -1  2     49664  znt.ultralytics.nn.modules.block.C2f         [64, 64, 2, True]             \r\n  5                  -1  1     73984  znt.ultralytics.nn.modules.conv.Conv         [64, 128, 3, 2]               \r\n  6                  -1  2    197632  znt.ultralytics.nn.modules.block.C2f         [128, 128, 2, True]           \r\n  7                  -1  1    295424  znt.ultralytics.nn.modules.conv.Conv         [128, 256, 3, 2]              \r\n  8                  -1  1    460288  znt.ultralytics.nn.modules.block.C2f         [256, 256, 1, True]           \r\n  9                  -1  1    164608  znt.ultralytics.nn.modules.block.SPPF        [256, 256, 5]                 \r\n 10                  -1  1         0  torch.nn.modules.upsampling.Upsample         [None, 2, 'nearest']          \r\n 11             [-1, 6]  1         0  znt.ultralytics.nn.modules.conv.Concat       [1]                           \r\n 12                  -1  1    148224  znt.ultralytics.nn.modules.block.C2f         [384, 128, 1]                 \r\n 13                  -1  1         0  torch.nn.modules.upsampling.Upsample         [None, 2, 'nearest']          \r\n 14             [-1, 4]  1         0  znt.ultralytics.nn.modules.conv.Concat       [1]                           \r\n 15                  -1  1     37248  znt.ultralytics.nn.modules.block.C2f         [192, 64, 1]                  \r\n 16                  -1  1     36992  znt.ultralytics.nn.modules.conv.Conv         [64, 64, 3, 2]                \r\n 17            [-1, 12]  1         0  znt.ultralytics.nn.modules.conv.Concat       [1]                           \r\n 18                  -1  1    123648  znt.ultralytics.nn.modules.block.C2f         [192, 128, 1]                 \r\n 19                  -1  1    147712  znt.ultralytics.nn.modules.conv.Conv         [128, 128, 3, 2]              \r\n 20             [-1, 9]  1         0  znt.ultralytics.nn.modules.conv.Concat       [1]                           \r\n 21                  -1  1    493056  znt.ultralytics.nn.modules.block.C2f         [384, 256, 1]                 \r\n 22        [15, 18, 21]  1    751897  znt.ultralytics.nn.modules.head.Detect       [3, [64, 128, 256]]           \r\n time (ms)     GFLOPs     params  module\r\n      3.93       0.10     147712  znt.ultralytics.nn.modules.conv.Conv\r\n      3.22       0.24     147712  znt.ultralytics.nn.modules.conv.Conv\r\n      9.09       0.39     493056  znt.ultralytics.nn.modules.block.C2f\r\n      2.27       0.24     147712  znt.ultralytics.nn.modules.conv.Conv\r\n      7.79       0.64     4
…
cale=0.5, shear=0.0, perspective=0.0, flipud=0.0, fliplr=0.5, bgr=0.0, mosaic=1.0, mixup=0.0, copy_paste=0.0, auto_augment=randaugment, erasing=0.4, crop_fraction=1.0, cfg=None, tracker=botsort.yaml, save_dir=runs/classify/train\r\ntrain: /root/project-5-latest/train... found 54064 images in 5 classes \u2705\r\nval: /root/project-5-latest/val... found 13686 images in 5 classes \u2705\r\ntest: None...\r\nOverriding model.yaml nc=1000 with nc=5\r\n\r\n                   from  n    params  module                                       arguments\r\n  0                  -1  1      2320  ultralytics.nn.modules.conv.Conv             [3, 80, 3, 2]\r\n  1                  -1  1    115520  ultralytics.nn.modules.conv.Conv             [80, 160, 3, 2]\r\n  2                  -1  3    436800  ultralytics.nn.modules.block.C2f             [160, 160, 3, True]\r\n  3                  -1  1    461440  ultralytics.nn.modules.conv.Conv             [160, 320, 3, 2]\r\n  4                  -1  6   3281920  ultralytics.nn.modules.block.C2f             [320, 320, 6, True]\r\n  5                  -1  1   1844480  ultralytics.nn.modules.conv.Conv             [320, 640, 3, 2]\r\n  6                  -1  6  13117440  ultralytics.nn.modules.block.C2f             [640, 640, 6, True]\r\n  7                  -1  1   7375360  ultralytics.nn.modules.conv.Conv             [640, 1280, 3, 2]\r\n  8                  -1  3  27865600  ultralytics.nn.modules.block.C2f             [1280, 1280, 3, True]\r\n  9                  -1  1   1647365  ultralytics.nn.modules.head.Classify         [1280, 5]\r\nYOLOv8x-cls summary: 183 layers, 56148245 parameters, 56148245 gradients, 154.3 GFLOPs\r\nTransferred 300/302 items from pretrained weights\r\nDDP: debug command /opt/conda/bin/python3 -m torch.distributed.run --nproc_per_node 2 --master_port 35381 /root/.config/Ultralytics/DDP/_temp_vhsexeb0140059747641488.py\r\nUltralytics YOLOv8.2.48 \ud83d\ude80 Python-3.10.14 torch-2.2.2 CUDA:0 (N
…
